data/derived/mlp_head_last.pt (torch, 543645 bytes, 6 tensors)

net.0.weight f4 [256, 384]
000000 6a 6f 8f 3a b9 6f 15 bd ae aa 63 bd fa ab 89 3d
       0.0010943238 -0.0364835 -0.055582695 0.06722255
000010 11 bb d0 bd f1 5b b3 bc 50 7b 23 bd 85 51 7f bc
       -0.1019193 -0.021894427 -0.03991252 -0.015583401
000020 a5 6b 40 3d 53 b5 71 bd ac 17 c8 3d d8 7b 9e 3c
       0.046977658 -0.059010815 0.0977014 0.019346163
000030 66 4f 83 3d 4b 71 e6 3b 3a eb b4 3c 02 f8 54 3c
       0.064116284 0.0070325485 0.022084821 0.012998583
000040 83 73 65 3d fe 00 33 3c 90 40 9a bb 38 6e cc 3c
       0.056018364 0.0109255295 -0.0047074035 0.0249549
000050 8b 89 3f bc 9e af 11 3c 36 54 3b ba 9a 27 c4 3d
       -0.011690508 0.008891968 -0.00071460323 0.09577866
000060 2b 48 54 bc 1b a1 91 3c c9 f5 b4 bc f8 ab e1 bc
       -0.012956659 0.017777016 -0.022089856 -0.027547821
000070 13 9f 41 bd d0 09 03 bd db 07 9e 3d 59 0a fe bc
       -0.047270846 -0.03199178 0.07716342 -0.031010794
000080 11 48 3f 3d ea 04 95 bd ab ce 2f ba ba 5c 46 3d
       0.046699587 -0.07276328 -0.0006706516 0.048428275
000090 fb 35 e0 bc 7b ef eb 3c 60 96 06 bc 03 2a 9a 3d
       -0.02736949 0.028800717 -0.008214563 0.07527544
0000a0 3c 70 a0 3c 34 eb ff bc 5f e9 86 3c 5b 57 b8 3d
       0.019584768 -0.031240083 0.016468702 0.09001037
0000b0 53 c0 95 3d 38 4c ca 3c 28 cd ac 3d 01 50 7c 3c
       0.073120736 0.024694547 0.08437568 0.015399934
0000c0 29 10 36 3d e9 95 07 bd 57 b3 78 bd e1 31 aa bd
       0.044449005 -0.03310195 -0.060717907 -0.08310295
0000d0 47 a1 3d 3d 08 13 3c 3d 2a 54 6d bd 5c 10 6d 3d
       0.046296384 0.045916587 -0.057941593 0.05787693
0000e0 cf 9a bd 3c 38 0b 5d 3c 46 f4 3d 3a 86 8a 74 bc
       0.023145108 0.013491444 0.00072461774 -0.014925605
0000f0 41 7f 60 bc e7 b1 9d bd 6d f5 d5 bc 9e 50 30 3c
       -0.013702215 -0.07699948 -0.026118005 0.010761408
000100 6d 07 9b bd f1 b5 cb 3b e2 2f cb 3c 1a ef 81 bc
       -0.07569776 0.0062167575 0.024803106 -0.015861083
000110 47 84 62 bd b8 70 31 bd 2e 03 6a 3d 51 d3 80 3d
       -0.05530193 -0.043320388 0.05713194 0.062903054
000120 bb 9f ad 3c 10 71 a9 bd 27 c6 fc bd cd 91 3c bd
       0.02119433 -0.08273518 -0.12342482 -0.046037484
000130 29 48 1a bd 72 71 6a bc bd 4f b7 3b ba c5 8f 3d
       -0.037666474 -0.014309274 0.0055942223 0.07020135
000140 46 7a 1d bd 40 15 66 3c c0 53 9c 3c 75 68 0c bd
       -0.038446687 0.014043152 0.019082904 -0.034279305
000150 a4 6c 08 3e b4 35 1f 3b f4 80 f9 3c c0 65 16 bd
       0.13322693 0.0024293484 0.030456997 -0.03671813
000160 ce b3 a0 bd 4d 7d ae 3c 13 b3 c0 3c 4d 88 62 3d
       -0.07846795 0.021299982 0.02352289 0.055305768
000170 6a f7 16 bd 17 7e 82 3d 15 a3 c0 bd f3 93 57 bd
       -0.036857046 0.06371706 -0.094061054 -0.05263133
000180 93 5f 86 3d aa a2 18 bd e3 87 6c 3d b1 ed 9f bd
       0.06561198 -0.037264504 0.05774678 -0.07809008
000190 96 8e 4f bc d4 a0 aa bd 9a 6d 2d 3d 0c b0 4c bd
       -0.0126682725 -0.08331457 0.042340852 -0.04997258
0001a0 d2 71 21 bc f7 a4 a7 bd 46 ba a2 bd 0b 78 8f bd
       -0.009853797 -0.081857614 -0.07945685 -0.07005318
0001b0 56 4d ea bc 7d fd 0e bd d4 70 00 3d d7 e9 18 3d
       -0.02860133 -0.034909714 0.0313576 0.037332382
0001c0 24 34 09 bd b9 82 22 bd 12 1b 8a bd 79 ac ee 3d
       -0.03349699 -0.039675448 -0.067434445 0.1165399
0001d0 c4 3c 30 3a be 43 39 3b 57 90 5b 3d ed 35 6c 3a
       0.0006722922 0.0028269137 0.05360445 0.0009010721
0001e0 6a 9e dd bb 0a 9b 7f bd 8d 6a 73 bd 46 df 1b bd
       -0.006763269 -0.062403716 -0.059427787 -0.038054727
0001f0 4a 65 38 bd 46 7c 1a bd 49 c3 dc bc 16 25 83 bd
       -0.04501847 -0.037716173 -0.026948588 -0.06403558
000200 32 0a 13 bd 57 91 48 3a f2 f0 84 bc 5d 4c 40 3c
       -0.035898395 0.0007651052 -0.016228173 0.011736956
000210 66 e1 26 bd d8 e1 9e 3d db 55 ad bc 17 23 cb bd
       -0.0407423 0.0775792 -0.021159103 -0.09918802
000220 24 33 f3 bc ec 12 01 3c 35 57 82 3d 59 65 c5 b9
       -0.029687472 0.0078780465 0.0636429 -0.00037650278
000230 bd db 1a 3d 46 b3 55 bd 52 27 1e 3b 9c 76 39 bd
       0.037807215 -0.05217292 0.0024132323 -0.04527913
000240 b2 e4 a8 bb 99 31 17 bd 80 37 74 3d 90 52 9f 3d
       -0.0051542157 -0.036912534 0.05962324 0.077794194
000250 de 9d a1 3d 5c 7a 78 3c 35 9b 08 bc 4c 5d db bd
       0.07891439 0.0151658915 -0.0083377855 -0.10711154
000260 fd 87 18 bd cf 66 9f bb 1b 80 19 3d 3b 5e 36 bc
       -0.037239064 -0.0048645507 0.037475687 -0.011130865
000270 f5 71 52 3d e2 bb 04 3d 2f 9a 5b 3a 49 c3 8a bd
       0.05137821 0.03240574 0.0008377162 -0.06775529
000280 b3 8d 8e 3d 9e 8e 39 3d b7 e4 62 bb 3b 51 01 be
       0.06960621 0.045302026 -0.0034621188 -0.12628643
000290 2f c4 5a 3d c7 f3 22 bd f2 ed 19 bd 09 fb 1f 3d
       0.05340975 -0.039783265 -0.037580438 0.039057765
0002a0 86 42 11 3d 41 d6 0f bd c0 a6 02 bd b0 51 20 bc
       0.035463832 -0.035116438 -0.031897306 -0.009785101
0002b0 05 b5 a0 3c 27 a4 51 bd ca 83 81 bd 2e b3 d4 bc
       0.019617567 -0.05118194 -0.06323965 -0.025964346
0002c0 89 9b 2e bd df 45 23 3c b0 9d 04 3e 6f a4 6a bb
       -0.0426288 0.009965389 0.12950778 -0.0035803576
0002d0 f5 40 92 bc ba 8e 88 3d 0e 17 1d bc e0 5b 8a bb
       -0.01785324 0.06667848 -0.009588016 -0.004222378
0002e0 fb 51 b2 bb 7e 61 b9 bc a5 75 5d 3d 13 66 85 bc
       -0.0054419017 -0.022629496 0.054067273 -0.016284024
0002f0 7a a8 c0 bc 33 e0 a5 bd 29 16 eb bd 42 9c a6 bd
       -0.023517836 -0.08099403 -0.11478836 -0.081352726
000300 5f a7 99 3d 95 3e 87 3d c5 54 d8 3c 83 19 94 3c
       0.07502627 0.066037335 0.026407609 0.018078571
000310 35 0a 17 3d 00 e2 4e 3d 28 e4 24 3c 4a da b0 3d
       0.03687497 0.0505085 0.010064162 0.08635385
000320 15 7f 44 bd a4 84 87 3c c0 36 10 3e 6a 91 9c 3c
       -0.047972757 0.01654274 0.14083385 0.019112308
000330 cd 0e 68 3d e5 ee 0e bd f0 62 ff 3c 85 44 ad 3b
       0.05665474 -0.034895796 0.031175107 0.005287709
000340 71 c0 89 bc 82 32 b6 3b 39 b8 a2 3d 91 a3 34 3d
       -0.016815396 0.00556022 0.07945294 0.0441013
000350 71 9a e7 bb 34 cd c5 bd 82 15 f4 3b d5 9c 6a 3d
       -0.0070679714 -0.0965828 0.007448853 0.057278473
000360 69 cf c8 bd c4 42 29 3d 02 e3 ca 3c f8 25 05 bd
       -0.09805185 0.04132344 0.024766449 -0.032506913
000370 73 eb 32 bd ed 44 a0 3d 83 94 13 bd 88 dd 8f 3d
       -0.043681573 0.078256465 -0.036030304 0.070246756
000380 45 c9 ef bd d5 9b 8d 3d 5c 4b c7 3c 65 5b 03 3e
       -0.11708311 0.06914488 0.024327926 0.12827833
000390 9a cb ad bd 5b f7 c4 bb 30 b3 1b bc d5 65 62 bd
       -0.084860995 -0.0060109324 -0.009503171 -0.055272896
0003a0 cc 7a db 3c 7f a0 80 3d 4c 8f 99 3d e5 10 32 3d
       0.026791953 0.06280612 0.07498035 0.043473143
0003b0 d6 a4 d1 3b ec 24 9c bd d4 f7 58 bd f8 a1 1a bd
       0.006397824 -0.0762423 -0.052970722 -0.03775212
0003c0 45 bf 96 3c 2d ab f2 ba 26 f9 d4 bd f2 10 2e bd
       0.018401751 -0.0018514149 -0.10399084 -0.04249663
0003d0 e7 6d e0 bc c1 c3 a5 bc 99 2d 94 bd 7f 94 ce 3d
       -0.027396156 -0.020234944 -0.072352596 0.10086917
0003e0 8f b9 00 bc 27 73 80 3d 22 53 79 bd ca 3c 3b 3b
       -0.007856741 0.062719636 -0.060870297 0.0028570169
0003f0 5e 97 20 bd 3a d9 ab bc f7 a1 ee 3c 83 aa 8d bd
       -0.039206855 -0.020977605 0.029129965 -0.06917288

net.0.bias f4 [256]
000000 46 ee fb 3b 26 16 00 bd 94 bf b9 bd f7 4c 6a bd
       0.0076883165 -0.031271122 -0.09069744 -0.057202306
000010 56 c2 97 bd 79 c2 ae bd 55 31 cc 3c 37 80 2e be
       -0.074101135 -0.085331865 0.024925867 -0.17041098
000020 4d f3 52 be 2b be be bd c7 63 da bd de 56 93 bd
       -0.20600624 -0.093136154 -0.10663562 -0.07194303
000030 97 81 9f bd 90 09 f5 bd 78 30 13 3c a5 0a ba bd
       -0.07788389 -0.119647145 0.008983724 -0.090840615
000040 3e 7f ad bd 80 59 46 bc 21 c5 2f bd 68 a5 a4 3c
       -0.08471535 -0.012106299 -0.042912606 0.020098403
000050 64 38 9d bc 55 bb 66 be 81 5b cb 3c fe b2 1c be
       -0.019191928 -0.22532399 0.024823906 -0.15302655
000060 fd 6b b8 bc 34 14 c3 bd 99 a6 25 bc c6 10 44 bd
       -0.02251243 -0.09525338 -0.010110521 -0.04786756
000070 10 58 69 bd a8 a3 12 bd b8 90 ae bd 61 bd a4 3c
       -0.05696875 -0.035800606 -0.08523697 0.020109834
000080 9e 05 46 bd f5 36 78 bd 80 c2 84 be 0f 5f 14 be
       -0.0483452 -0.060599286 -0.25929642 -0.14489387
000090 2a 44 53 bd 0f 61 a2 bc 3e 43 01 be d8 78 94 bd
       -0.05157868 -0.019821672 -0.12623307 -0.072496116
0000a0 3d 5e 97 bc 95 09 5e bd 69 f7 3b 3c c3 48 e7 3c
       -0.018477554 -0.054208357 0.011472561 0.028232938
0000b0 08 ce f5 bd aa 1f 37 bd 0e 73 d9 bb 8e 67 5b 3c
       -0.12002188 -0.04470793 -0.00663603 0.013391389
0000c0 77 4e cd bd 72 3c da bc 0c d9 e8 bc ec d8 91 bd
       -0.100247316 -0.02664015 -0.028423809 -0.07121453
0000d0 4f 52 86 bb d3 9b 89 3c 22 8f 9b bd 22 d8 c8 bc
       -0.0040991674 0.016797936 -0.0759566 -0.024517123
0000e0 dc 44 f0 bd 74 32 78 bc b8 9c 32 be 40 f1 40 bd
       -0.11731884 -0.015148748 -0.17442596 -0.047105074
0000f0 33 af f9 bd 1e c7 59 bd 7b 01 2a 3c 2b 62 e7 bd
       -0.1219162 -0.05316841 0.0103763295 -0.11298021
000100 1b 52 74 be a3 33 d7 bd 23 c1 c3 bd aa 3c c8 bd
       -0.23859446 -0.10507896 -0.09558322 -0.09777196
000110 b9 68 72 bd a9 cd 5a 3b 43 60 9e bd 06 db 91 bd
       -0.059181903 0.0033386743 -0.07733204 -0.071218535
000120 b2 fb cf bd 80 2f e3 3c ed 7f 13 be 15 9f 5b bd
       -0.10155429 0.02773261 -0.14404269 -0.05361851
000130 e3 b3 c4 bc 9e 07 25 bd 8b 3c 16 be 26 04 43 bd
       -0.024011558 -0.040290467 -0.14671533 -0.047611378
000140 77 89 54 3d 74 63 28 be 9b 81 92 bd 1f 47 7b bc
       0.05188891 -0.16444188 -0.071536265 -0.015336781
000150 49 fb 0b bd 96 f2 da bc e1 19 ea bd 85 29 0e be
       -0.03417519 -0.026727002 -0.11430717 -0.13883026
000160 f5 38 9a bc f8 df 0d be e7 63 8d 3b 2c 37 a9 bd
       -0.018825987 -0.13854969 0.004314888 -0.08262476
000170 b7 dd c5 bd 36 92 a4 bd ed 80 c9 3b 5e e1 c1 38
       -0.096614294 -0.080357 0.0061494024 9.244935e-05
000180 27 bc 5d bd b9 8d b1 bd 00 f9 9b be 06 0c 9a bb
       -0.054134514 -0.086696096 -0.3046341 -0.0047011403
000190 15 54 06 3d 1a 99 8e bd 74 83 46 be 24 32 b8 bc
       0.03279503 -0.069627956 -0.19386083 -0.022484846
0001a0 22 9a 6c bd 51 70 36 be ee 45 18 3d 83 a9 8a bc
       -0.05776418 -0.17816283 0.037176065 -0.016926533
0001b0 19 10 28 bd e7 44 ac bb dc c0 d7 bc 15 72 94 bd
       -0.041030977 -0.0052572372 -0.02633708 -0.07248322
0001c0 55 c1 62 be 79 81 2b bd 34 a3 63 bc 52 e5 05 bd
       -0.22144063 -0.04187152 -0.013893891 -0.0326894
0001d0 59 44 c9 bd c7 f8 f4 bd 9c 2a 47 be 87 70 1c bd
       -0.098274894 -0.11961513 -0.19449848 -0.038193252
0001e0 8b ee aa 3c 3b 2c 9b be 2a 9c ce bb 89 82 3a be
       0.0208657 -0.30307183 -0.0063052373 -0.18213858
0001f0 2b ec ad bd b3 c4 9d bd d0 03 13 bd 0d 47 39 bc
       -0.08492311 -0.07703533 -0.035892308 -0.011308444
000200 38 44 3d bc 62 35 f9 3b 6f 04 b8 bc 31 c4 92 bd
       -0.011551909 0.0076052407 -0.022463052 -0.07166327
000210 c6 68 8a bd 15 f6 95 3c c5 b0 45 bd 28 4e ba bd
       -0.06758265 0.018305818 -0.048264284 -0.09096938
000220 09 e6 a3 bd e4 55 df 3a 8f 06 67 bd 94 3d 4e bd
       -0.0800286 0.0017039147 -0.05640274 -0.050351694
000230 02 48 99 bd 66 60 71 bd 16 f2 b5 bc e3 46 b4 bc
       -0.074844375 -0.058929823 -0.022210162 -0.022006458
000240 58 e7 18 be 95 6d 2a bd 67 9c 02 be b4 00 80 bd
       -0.14932 -0.04160841 -0.12754975 -0.06250134
000250 72 c2 b4 3c 1e 2c 08 bd b2 d5 b9 bd 17 ce 36 bc
       0.022065375 -0.0332452 -0.09073962 -0.011157534
000260 42 f7 52 3c 94 f4 b1 bc 80 47 8f 3c 95 45 11 be
       0.012876334 -0.02172307 0.017490149 -0.141867
000270 76 55 e2 3c 32 9f 09 bd 19 a3 5c bc b7 c5 9f bd
       0.027628642 -0.033599086 -0.01346662 -0.07801383
000280 c9 e1 4e be 83 99 26 3b 59 6c a8 bd f5 22 bf 3b
       -0.20203318 0.002542109 -0.08223791 0.0058330246
000290 3f 24 49 be 90 ee b3 bd 9f 2a de bd ef 5f 1e 3d
       -0.19642733 -0.087857366 -0.10847973 0.03866571
0002a0 d4 7a 80 bc b1 5a 54 bd b2 24 a9 bd f8 f0 29 bd
       -0.015683569 -0.051844303 -0.08258952 -0.04148957
0002b0 ae ad e0 3b ae a3 fa bd 0c 5e f4 bd 38 bc 6f be
       0.0068566417 -0.12238251 -0.119320005 -0.23411644
0002c0 3a f3 b8 bd b8 ca e2 bc 15 34 d6 bd 32 09 9c bd
       -0.09030767 -0.027684554 -0.104591526 -0.07618941
0002d0 ef dd a0 3c 50 dc 3c bd 39 f7 70 bd d9 f1 18 bd
       0.019637076 -0.046108544 -0.05882952 -0.03734002
0002e0 d1 d6 c4 bd e3 a1 c0 bd 2f 78 dc bd 3d 87 1c 3c
       -0.096112855 -0.094058774 -0.10765111 0.009553728
0002f0 c3 a2 82 bb f0 78 a9 bd 8a f0 26 bd 36 28 24 bd
       -0.003986688 -0.0827502 -0.04075674 -0.04007741
000300 50 7a 07 bd 02 84 49 bd 56 0d ef bd f5 54 85 bd
       -0.03307563 -0.049198158 -0.116724655 -0.06510345
000310 c0 62 68 bd 88 81 b2 bd 39 98 e1 3c 2e b7 2a bd
       -0.0567348 -0.087161124 0.027538406 -0.0416786
000320 b9 e8 ba bd 5f db a6 bd 07 32 81 bd 18 c6 52 ba
       -0.091264196 -0.081473105 -0.0630837 -0.00080403825
000330 c2 be 16 bd 4e 36 ad bd e4 b8 58 be 57 8f aa bc
       -0.036803015 -0.084576234 -0.2116428 -0.020820303
000340 ea 1e 9d bd 33 bf 04 ba 92 fc ef bd a9 f3 95 3c
       -0.07671912 -0.00050638913 -0.11718096 0.018304663
000350 3b 5c db bb a7 2d ed bc 7e 60 ff bd 92 1d d7 bd
       -0.0066943443 -0.028952433 -0.12469576 -0.10503687
000360 31 f4 12 bd 89 98 8b bd 0f d4 72 bd 07 19 5f be
       -0.03587741 -0.06816203 -0.059284266 -0.21786891
000370 bc 08 88 bd 65 3e cc bb 18 3d ba bd 64 fa 13 be
       -0.06642291 -0.006233024 -0.09093684 -0.14450985
000380 2f 62 16 bc 45 c6 31 bd c3 8d 2e be 54 1a ba bd
       -0.009178682 -0.043401975 -0.17046265 -0.09087053
000390 bf 43 3e be 35 ab 93 bd bf 08 43 be 6f 2d 58 3c
       -0.1858053 -0.072103895 -0.19046305 0.013194426
0003a0 fe 70 ec bc 49 f4 5c 3d e6 d3 f9 bc 5f b4 c2 bd
       -0.028862473 0.053943906 -0.030496549 -0.09507059
0003b0 27 53 95 3b a6 b0 92 bd 9a 65 5a 3d b9 72 f0 bb
       0.0045570317 -0.07162599 0.05331955 -0.0073378948
0003c0 b9 8f 9b bd e3 84 7c bc f9 4a 8d bd 34 8e d9 bb
       -0.07595772 -0.015412542 -0.068990655 -0.0066392664
0003d0 86 d1 32 3d 77 a9 95 bd d6 17 4f be 77 69 ab 3b
       0.04365685 -0.073077135 -0.20223936 0.0052310782
0003e0 6e 9c db 3b 65 62 5f bd a2 1e 09 be bd fd 03 3b
       0.0067019975 -0.054537196 -0.13390592 0.0020140253
0003f0 70 d3 f6 bd 76 41 56 be 0b 10 8a bc b2 55 f7 bd
       -0.12052047 -0.20923409 -0.016853353 -0.12076892

net.3.weight f4 [128, 256]
000000 7f 5d a4 3b 84 58 f7 3d 42 69 91 3d 38 ac 17 3d
       0.0050160284 0.1207743 0.071001545 0.037029475
000010 99 bf 07 3d b4 97 47 3d ca 5c 24 3d 67 78 a3 3d
       0.033141706 0.04872866 0.040127553 0.07981949
000020 c6 45 0b 3e a3 2d a2 3c 55 85 4e 3c 6c 86 1e 3d
       0.13600835 0.019797152 0.012605031 0.038702413
000030 95 b2 04 3c 4b dc 60 3c 64 cd 6c 3d 3f 82 1c 3d
       0.008099218 0.013724397 0.057813063 0.03821015
000040 ef 12 bc bd 47 9f dd bc 0f 38 da 3b 2a 85 a4 3d
       -0.09183299 -0.027053488 0.0066595147 0.080332115
000050 45 49 f3 3c 9e 02 1a bd 07 d2 57 3d dc 77 99 3d
       0.029698024 -0.037600152 0.052690532 0.074935645
000060 33 76 bb 3b 53 5b 73 3d 6f b1 15 3d a6 95 01 bc
       0.0057208776 0.059413265 0.036546167 -0.007909214
000070 dc 84 03 3e 58 0e 5e bc 8c 65 19 3d ef 44 5f bd
       0.1284365 -0.0135532245 0.03745036 -0.0545091
000080 a5 52 a4 3c 33 f8 0f bd 82 11 95 bd a7 6c 87 3d
       0.02005894 -0.03514881 -0.0727873 0.06612521
000090 b7 13 b8 3b 90 09 b1 3d 0c b9 4d 3c 85 75 f5 ba
       0.0056175846 0.08644402 0.012556326 -0.001872704
0000a0 5f 8f bc 3d b0 b2 67 3d f0 4d 03 bd 99 c9 25 bc
       0.09207033 0.056566894 -0.03205675 -0.010118865
0000b0 d3 11 d7 bc 11 81 f5 3a 15 e1 e1 3c 23 42 f2 3c
       -0.026253616 0.0018730481 0.027573148 0.029572552
0000c0 6c ab 40 bd cc 7c 56 bc fb 32 22 bd 35 73 0b 3d
       -0.04703848 -0.013091277 -0.0395994 0.034045417
0000d0 e4 c5 ae 3d 6c 95 a1 3d da 1b ef 3a 02 68 ac ba
       0.085338384 0.07889828 0.0018242553 -0.0013153555
0000e0 9e 51 d3 bc ad e4 72 3c 33 41 c2 3c 9c f6 02 3c
       -0.025795754 0.014825028 0.02371273 0.007993367
0000f0 6a a5 ca 3d 65 21 c4 3c af 35 23 3d d3 5d 19 3d
       0.098948315 0.023941705 0.03984612 0.037442993
000100 a6 b7 4b bd 92 2c c9 3d 3c 24 c4 3d ae 12 f8 bc
       -0.049735688 0.09822954 0.09577224 -0.030282345
000110 89 6d b9 3d 56 40 ad 3d b1 ea be 3d ed 39 f9 3c
       0.09054095 0.08459537 0.093221076 0.030423129
000120 69 83 78 36 a7 aa c4 3d d6 89 4f 3d ee 3b 60 3d
       3.703137e-06 0.09602862 0.05066856 0.054744653
000130 25 be 6f bc e4 83 ac bb 60 a6 9e 3c b6 9e e7 3c
       -0.014632736 -0.005264746 0.019366443 0.028273921
000140 51 4d e5 3d 1e 53 2c 3b 53 d8 07 bd 6e 0c 0a bc
       0.111963876 0.002629466 -0.033165287 -0.008425815
000150 cf 56 aa 3d 5c d8 7b 3c b2 f5 83 3d 02 b4 c7 3d
       0.08317339 0.015371408 0.06443347 0.09751131
000160 cb 68 5e 3d f6 fd 4d 3d 41 80 60 3d ec 51 3d 3d
       0.054299157 0.050291024 0.054809812 0.046220705
000170 5f eb 9d bd 76 54 ce 3d ce 06 f6 3c 81 9e 47 3d
       -0.07710909 0.100747034 0.030032542 0.048735145
000180 40 03 21 3d 25 1e a5 3d 43 d9 cf bc 1b 8a 93 3d
       0.03930974 0.0806239 -0.025372153 0.07204076
000190 75 e2 ac bc 00 5c 50 3d 3f 6f 12 3d dc ec 47 bd
       -0.021104077 0.050868988 0.035750624 -0.04880987
0001a0 af 15 12 3c be 14 b3 3c 3a 40 80 3d 2d 91 23 3d
       0.008916303 0.021860477 0.0626225 0.039933372
0001b0 19 01 90 3d 40 84 96 3d 8d ef a4 3d fc e4 c8 3d
       0.07031459 0.073494434 0.08053503 0.098093
0001c0 d8 32 c5 3d 11 31 6f 3d 42 0f b5 3c 97 a8 9a 3d
       0.09628838 0.058396403 0.022102002 0.07551687
0001d0 16 cc b8 3d 67 3c 5c 3d 8b 16 91 3d 45 49 3b 3d
       0.09023301 0.05376854 0.07084378 0.045724172
0001e0 24 dd 88 3c 7a 36 37 3d c7 6b 95 3d 84 76 01 3e
       0.01670701 0.044729687 0.072959475 0.12642866
0001f0 2d 49 bf 3d 34 b3 f1 3d e6 4b 09 3d dd 4b 15 bd
       0.09340129 0.118017584 0.033519648 -0.036449302
000200 0b a4 14 bd 64 80 a4 3d 63 57 dc 3c 87 da 03 3e
       -0.036289256 0.08032301 0.026897138 0.1287633
000210 72 a1 c1 3d e2 1d 80 3d e9 8d 87 3d 58 cc 40 3d
       0.094546214 0.062557 0.06618864 0.047069877
000220 ed c0 b4 3d 68 6a 57 3d 27 ca c4 3c 3c 36 8f 3d
       0.0882586 0.05259171 0.024022175 0.06992766
000230 a0 da ce bc d7 14 78 3d ac 7a 2c 3d ee 82 d9 3d
       -0.025250733 0.06056675 0.042109177 0.10620676
000240 b1 35 08 3e 60 e3 fb bb a8 22 d1 3d eb b3 08 bb
       0.13301732 -0.0076870173 0.10211688 -0.0020859193
000250 52 3b 84 bc d2 45 72 3d 83 78 c0 3d 05 63 13 bd
       -0.016141567 0.059148617 0.09397986 -0.035983104
000260 07 a5 ac bc 52 b0 80 3d 17 46 ae 3c f3 b6 7d bc
       -0.021074785 0.062836304 0.021273656 -0.015485513
000270 fa 8a ab 3c fe 6b 0c 3c ac 47 cc 3c 53 d4 8d 3d
       0.020940293 0.008570669 0.02493652 0.06925263
000280 18 65 8c 3d d9 d2 1b bc 9b 4e e3 3b e7 eb a2 3c
       0.068552196 -0.009510719 0.0069368607 0.019887878
000290 87 ec a5 3c 41 69 06 3a 9c c8 b2 3c ae 1f 33 bc
       0.020254387 0.00051273784 0.021824174 -0.010932846
0002a0 33 0b 85 ba d9 0b 01 3e 3d f7 1c bc 81 39 0f bc
       -0.0010150432 0.12602176 -0.009580431 -0.008741737
0002b0 97 d0 69 3c 77 5b 98 bc ef ac 80 bd b9 00 1d bd
       0.014270923 -0.018598301 -0.062829845 -0.038330767
0002c0 ea c2 8d 3c 70 9d 63 3c 81 63 b1 3d 7e 3f c9 bd
       0.017304856 0.0138925165 0.08661557 -0.09826563
0002d0 c9 6c 3a 3c 8a 4a 83 3d c4 98 03 3d ed 4d 39 bd
       0.011378475 0.064107016 0.03212811 -0.04524033
0002e0 22 b6 36 3d 7c 7a d9 3d 57 fc 67 3c 19 c6 e6 3c
       0.04460729 0.10619065 0.014159284 0.028170632
0002f0 a6 f2 8f 3d f0 97 cd 3d 15 ac 81 3d 3f 3d 57 3d
       0.070287034 0.100387454 0.0633165 0.052548643
000300 0c 3b 6d bc c4 f7 7f bb 53 d0 9b 3d 16 e7 f7 3c
       -0.01447941 -0.0039057592 0.07608094 0.030261558
000310 48 59 b7 3c b1 56 46 3d 5f 3c ff 3b 2d bb 87 3d
       0.02238144 0.04842252 0.007789179 0.06627498
000320 b7 6a e6 3c a5 c6 a6 3b c7 d7 13 3c 71 c7 0b ba
       0.028127057 0.0050895982 0.009023613 -0.0005332148
000330 9e eb 10 bd cd 02 a8 3c cb c6 a0 bd a7 ba ad 3b
       -0.035380952 0.020509148 -0.07850417 0.0053017917
000340 e9 bd 09 bc 9a 76 07 3d c1 af 0d 3d 37 d9 49 3b
       -0.0084070945 0.03307209 0.03459144 0.0030799636
000350 5f 5d c1 3c 23 2b a7 3c a9 91 b4 3d 7f 57 d1 3c
       0.023604093 0.020406311 0.08816845 0.025554417
000360 92 7f af 3c 82 87 c4 3d 0a 6a 6c 3c 9c 8e 33 bc
       0.021423135 0.095961586 0.014429579 -0.010959294
000370 36 9b 5e bc 92 46 81 3a 54 02 0d 3b 62 0b fe bb
       -0.01358681 0.000986295 0.002151628 -0.007752822
000380 7b 3f bd 3c d4 85 b7 3d 1e 60 ba bb da 3e d0 3c
       0.023101559 0.089610726 -0.0056877276 0.025420595
000390 9d 1a 04 bd 7c e1 9c 3b 97 e0 bc bb 05 e4 51 3d
       -0.032251943 0.004787622 -0.005764078 0.051242847
0003a0 58 99 8c 3c 36 4a 32 3d d9 e6 a1 3c f4 10 9f 3d
       0.017162964 0.043527804 0.019763397 0.077669054
0003b0 e4 4d a2 3d ee 3e 47 3c 7a cd 91 3d 4a fa 85 bd
       0.07925013 0.012161 0.0711927 -0.065418795
0003c0 df 46 fd 3a 66 b0 df 3d d3 eb f7 3b 17 d9 a3 3b
       0.0019323489 0.10922317 0.0075659542 0.0050002444
0003d0 f7 12 a2 3d e0 ae 7f 3d 48 b1 89 bd 57 b0 ea 3d
       0.079137735 0.062422633 -0.06723267 0.114594154
0003e0 d6 df 20 3d 88 92 4b 3d 2d e2 92 bb 65 85 9b 3d
       0.039275967 0.04970029 -0.0044825287 0.07593802
0003f0 54 be fb 3d 7d 33 22 3d 96 7d 1e 3c 15 83 5b 3c
       0.122921616 0.039599884 0.009673497 0.013397952

net.3.bias f4 [128]
000000 fb cf 35 3e c5 c9 2e 3e 49 37 ea 3c 78 1b bf 3c
       0.1775512 0.17069156 0.028590815 0.023328528
000010 2b 6e 00 3e ba 49 74 3e cb 10 e3 3d 27 47 fe 3d
       0.12542026 0.2385625 0.110871874 0.12415915
000020 0e 44 4a 3d 8f 5f ce 3c 47 68 1e 3d c0 ef 09 3e
       0.04938131 0.02519205 0.038673665 0.13470364
000030 2d 12 24 3e 5f 75 1d 3e 25 20 c6 3d 68 54 6c 3d
       0.16022559 0.15376805 0.096741 0.057697684
000040 c7 7c 2c 3e e0 07 23 3e b7 1b 35 3e 19 5e 44 3e
       0.16844474 0.15920973 0.17686354 0.1917652
000050 f9 f4 3d 3e 98 76 99 3d 21 96 41 3e 6a 39 cc 3c
       0.18550481 0.07493323 0.18904926 0.02492972
000060 2a 58 3c 3e 01 8e 1f 3d a6 4c 1d bd 62 ba 8c 3d
       0.18393007 0.038953785 -0.038403176 0.06871487
000070 e5 b6 f8 3c 4b c2 0b 3d f8 e4 28 3e 1c d7 53 3c
       0.030360648 0.03412084 0.16493595 0.012929704
000080 c8 b3 7e 3d 39 39 14 3c 45 f5 d7 bb 5e b0 1f 3e
       0.06218317 0.009046846 -0.0065905177 0.15594622
000090 45 9d 1c 3e 5c 39 75 bc 30 cf fe 3d c3 d8 fe 3d
       0.15294369 -0.014967289 0.12441862 0.12443688
0000a0 06 12 13 3d 19 6c b5 3d 33 03 0e 3e 0b 06 d1 3d
       0.03590586 0.088585086 0.13868408 0.10206231
0000b0 fe 0f 92 bd c0 5f ae 3d ac fe 53 bb c9 10 18 3e
       -0.071319565 0.085143566 -0.0032347841 0.14850153
0000c0 9f 61 1d 3e af 11 39 3e e7 1b 27 3e 83 6a 05 3e
       0.1536927 0.18073152 0.16319238 0.13028912
0000d0 da 6a c0 3d cf 38 20 bc 05 42 28 3e 8f 99 60 3d
       0.0939538 -0.009779169 0.16431434 0.054833945
0000e0 b7 c8 2b bd f8 ec e1 3c 0d ef 19 3e 7e ac 1b 3e
       -0.041939463 0.027578816 0.15032597 0.1520252
0000f0 9d 91 49 3e 57 42 4c 3d 6f a0 fc 3d 87 61 2d 3e
       0.19684453 0.049867954 0.12335288 0.16931735
000100 3a c5 ad 3d 1a 38 90 3d 70 f9 58 3e 57 da 0e 3e
       0.084848836 0.070419505 0.21188903 0.13950478
000110 78 b3 be 3d 12 2f 08 3e c2 ea 24 3e 17 cc 1c bd
       0.09311575 0.13299206 0.16105178 -0.038280573
000120 19 63 99 3d 32 eb b8 bb d8 61 e4 3d d2 f0 a7 3d
       0.074896045 -0.005643272 0.11151475 0.0820023
000130 ff 27 6a 3e 3d 10 c5 bc d2 5d 11 3e 90 cf 0b 3e
       0.2286682 -0.024055595 0.14195946 0.13653398
000140 d6 c6 ca bc 9b 83 31 3d d7 be 3d 3e 78 4e 42 3d
       -0.024753015 0.0433384 0.18529831 0.047438115
000150 14 ab 01 bc 54 0b 45 3d 16 d3 3b 3e 41 3f 79 bd
       -0.007914323 0.048106506 0.18342242 -0.06085134
000160 1c 01 38 3e 30 9d 4d 3e 14 23 58 3e dc 2d 08 3e
       0.17969173 0.20079494 0.21107131 0.13298744
000170 12 63 26 3e 78 d4 8a bd 12 97 08 3e ed b5 9b 3a
       0.1624873 -0.067788064 0.13338879 0.001187978
000180 bd 7c 55 3e 4a 11 d9 3d 32 bd 53 3d 21 6b 2d 3e
       0.20848365 0.10599001 0.051694103 0.16935398
000190 d0 9a f4 3d bb 68 d3 3d 93 ca 23 3e c9 01 c8 3d
       0.11943591 0.1032271 0.15995245 0.097659655
0001a0 66 ca d6 3d e6 68 b1 3d fb 5f 0d 3e e4 f1 00 3d
       0.10487823 0.08662586 0.13806145 0.031480685
0001b0 36 50 ac 3d fd bd 0e 3e 98 48 1b 3d ba 80 2c bb
       0.084137365 0.13939662 0.037911028 -0.0026321844
0001c0 46 9d 4e bc 35 ea 82 3d c9 df b8 3d d0 55 88 3c
       -0.012610739 0.06392328 0.09027059 0.016642481
0001d0 12 63 4b 3e cc b3 ac bc ef 10 2e 3e 0c 81 db 3d
       0.19862011 -0.021081828 0.16998647 0.10717973
0001e0 b9 3f b8 3d 97 42 17 3d cb 05 87 3d 46 61 18 3e
       0.08996529 0.03692874 0.06592902 0.14880857
0001f0 89 20 93 3d 20 e7 df 3d 12 e0 12 3d 24 c9 44 3e
       0.0718394 0.109327555 0.03585822 0.19217354

net.6.weight f4 [5, 128]
000000 f1 24 74 ba 88 cf 0b 3e 48 07 12 be 16 a0 50 3e
       -0.0009313366 0.13653386 -0.1426059 0.20373568
000010 36 a9 60 3d b8 e2 54 3c 97 70 fd 3c fc 1b 9b bc
       0.054848872 0.012993507 0.030937476 -0.018934242
000020 30 d5 25 bd cc 54 91 3e 9d ef 9f bc 2c 7b f2 3b
       -0.040486515 0.28385007 -0.019523436 0.007399937
000030 10 01 8f bc eb 29 70 3b 57 9e b3 bb e8 0b d0 bc
       -0.017456561 0.0036646079 -0.005481522 -0.025396302
000040 b7 1f 12 bc 08 3d bf bc 9d 50 f3 3b dc 00 c4 3d
       -0.008918694 -0.023344532 0.0074253813 0.095704764
000050 b1 cd c6 bc f6 81 6e bc e7 91 79 bd 87 7c 15 3e
       -0.024268003 -0.014557352 -0.06093016 0.14598285
000060 21 e2 b1 3a 6c 42 1a bd 29 eb 91 3e dd 44 03 bd
       0.001357142 -0.037661 0.28499725 -0.032048095
000070 c8 cd 53 3d 79 f9 03 bd 56 5f 70 bb b8 a0 c9 3c
       0.05170992 -0.032220338 -0.0036677918 0.02461277
000080 8e 1e 57 3d ca 27 56 bd de 63 48 be da b6 26 bd
       0.052519374 -0.05228404 -0.19569346 -0.040701725
000090 ee ce 2b 3d 39 5e 33 bd b5 ba bb 3c f2 b8 3d 3c
       0.04194539 -0.04379103 0.022916177 0.011579739
0000a0 7c 5f d3 bd 42 00 9c bc 6e 5a e6 bc 2c 8a dc 3c
       -0.103209466 -0.019043092 -0.028119292 0.026921354
0000b0 41 31 95 3d d2 32 2b bd 06 7e 1b be 39 32 a9 3d
       0.07284785 -0.041796513 -0.15184793 0.08261532
0000c0 79 de f1 3d 2d e0 53 3c a2 2f 94 3c 4e 30 cf 3c
       0.118100114 0.012931866 0.01808912 0.025291588
0000d0 56 5c 6d 3d 6e 89 c2 3d 5a 0e 08 bd ba dd 01 bd
       0.057949387 0.09498869 -0.03321681 -0.031705596
0000e0 bb cd 5d be cb 20 9b 3d a3 28 4a 3d ee 5a b7 bd
       -0.21660511 0.07574614 0.04935516 -0.0895289
0000f0 6b 17 83 3d 99 19 d9 3c 03 ab 04 bd e7 07 bd bb
       0.06400951 0.026501464 -0.032389652 -0.0057687643
000100 20 86 ce 3c e0 e5 ed bc 1c 82 51 bc c5 98 08 3d
       0.02521044 -0.029040277 -0.012787368 0.033348817
000110 62 61 a0 bc cb 32 d3 3b 99 15 d0 3a 05 a4 91 bd
       -0.019577686 0.006445264 0.0015875577 -0.07111362
000120 02 c2 8e bc 85 99 07 bd 88 b7 d1 3c e4 8b 8a bd
       -0.017426495 -0.033105392 0.02560021 -0.06764963
000130 ba 4a 7f 3e be 7a c5 bd b7 91 1e 3c a0 d0 ea bb
       0.2493085 -0.09642552 0.009678296 -0.0071659833
000140 0f b0 2c be 59 48 88 3e dd 12 8e ba a8 76 18 3d
       -0.16864036 0.26617697 -0.0010839362 0.037222534
000150 fe a4 e3 3d 99 14 e8 3c 94 29 22 3d 95 75 a3 3c
       0.11115454 0.028330134 0.039590433 0.019953528
000160 ec 50 51 3d 2d 69 19 bd e3 69 e7 3d bc a4 ad bc
       0.051102564 -0.03745382 0.11299493 -0.021196716
000170 fe b4 a0 bc c1 11 73 3e 32 9c 43 3c d3 e5 e2 3d
       -0.019617554 0.23737241 0.011939095 0.11078992
000180 82 e0 70 3c 92 fa 5f 3e a7 fd 90 bd 9f 72 30 3d
       0.014701964 0.21872929 -0.0707963 0.04307806
000190 75 49 e2 3b 57 85 d3 bc 8e 1a 42 3b 75 52 14 3e
       0.0069057294 -0.025820417 0.0029617879 0.1448458
0001a0 7c 88 84 3c 10 18 cf bc 8e 3d 92 3c 80 67 19 be
       0.016178362 -0.025280029 0.017851617 -0.14980888
0001b0 bd 76 fc bc 7c 5a 3a 3c ed 6e ce bc cb 47 0f bd
       -0.030818338 0.011374112 -0.025199378 -0.034980576
0001c0 29 44 50 3e 28 bb 02 3d 07 9b 68 bb dd f0 7d 3e
       0.20338501 0.031916767 -0.0035492794 0.24798913
0001d0 92 9d 5d bd 5d ef 9a 3d bb 74 bf bc b0 6c 05 bc
       -0.05410535 0.07565186 -0.023371091 -0.008143589
0001e0 59 1c ae bc 27 c1 82 be aa 0e a8 bc 5c 88 9f 3c
       -0.021253752 -0.2553799 -0.020514805 0.0194742
0001f0 c2 a7 cc bc b2 a2 14 3c 18 29 09 bc e5 74 70 bb
       -0.024982337 0.009071993 -0.008371614 -0.0036690768
000200 7b 01 1e bb 4c 3c 9e 3d 4c 6f 34 3e 85 75 f4 bd
       -0.002410977 0.077263445 0.17620581 -0.119364776
000210 f4 62 41 3e 69 23 04 3d 81 50 f9 bc 01 bc 92 3c
       0.18885404 0.032260332 -0.030433895 0.017911913
000220 2d bc a4 bd 5e 67 3e bd 96 98 91 bc bc 3b b6 3a
       -0.08043704 -0.046485297 -0.017772954 0.00139033
000230 fe cf 0c 3e 2f 64 21 3d 49 d7 1a 3e 30 90 8b 3c
       0.13751218 0.039402183 0.15121187 0.017036527
000240 d8 1c 61 3d 76 1c bc 3c d0 5c 26 b9 42 ca e6 3c
       0.05495915 0.02296279 -0.00015865569 0.028172616
000250 c2 c2 b6 3d c6 0a 36 3d 01 73 56 3e 00 9f 1f bd
       0.08923866 0.044443868 0.20942308 -0.038969994
000260 2f e2 7d bb 5e 1b 66 3e 14 d9 94 bd 5f dd 4c bd
       -0.0038739552 0.22471377 -0.07267967 -0.050015803
000270 ac db e1 3b 59 ea 11 bd 0c 4e 76 bc 0c 32 3c bd
       0.006892642 -0.035623882 -0.015033256 -0.045946166
000280 ae ba ef bb d7 c6 81 bd 59 00 2c 3e 79 fc 76 3e
       -0.007315955 -0.06336754 0.16797008 0.24119748
000290 b5 41 f2 3c b0 bc 04 be 05 03 f3 3c f1 d3 7a bb
       0.029572347 -0.12962604 0.029664526 -0.00382733
0002a0 03 db 8a bd 91 1a 83 bb 66 1e b7 3c 05 2f 3b 3c
       -0.067800544 -0.0040009697 0.022353362 0.011424785
0002b0 e3 d8 ff bc 2d 3e 92 3e 1a 4c d6 3d 6e 9e 1c 3d
       -0.03123135 0.2856306 0.10463734 0.038237028
0002c0 cd 0f 07 3d 25 1e ed bc 75 32 95 3c 87 33 f1 3b
       0.032974053 -0.028945038 0.018212536 0.007360879
0002d0 ca e1 15 3c ef ec 2c bd ab a0 2b 3e db 80 03 bd
       0.009148071 -0.042218145 0.16760509 -0.032105308
0002e0 bd 24 98 bc 85 9d 18 3d bd e9 c0 bc 12 4b ba 3e
       -0.018572206 0.037259597 -0.023548955 0.363854
0002f0 36 81 70 3c c7 fe 6a 3e c1 4e 00 bb 42 6f bd 3c
       0.014679244 0.22948752 -0.001957819 0.02312434
000300 fb 2c a0 3b 7e 18 00 3d 16 9e 79 3d 42 92 ab bc
       0.0048881746 0.031273358 0.060941778 -0.020943765
000310 ef f5 85 3b 4c c9 94 bb fa 90 fd ba 8e c8 4a bc
       0.0040881555 -0.004540598 -0.0019345575 -0.0123769175
000320 71 76 45 3b b4 1d a8 bb 52 46 a6 bc ea 16 6c 3e
       0.003013041 -0.005130494 -0.020297203 0.23055616
000330 ec 1d 94 3d e8 3b 1f be 64 36 c9 3c 4d 3a 0e 3d
       0.0723227 -0.15550196 0.024562068 0.03472357
000340 f1 13 4d be e9 a5 a7 bd c0 a2 be 3c c3 8f 7c 3d
       -0.20027138 -0.08185942 0.023270965 0.06166054
000350 4d 93 8c bd c5 15 3f 3b d7 d2 15 3e 91 67 98 3c
       -0.06864033 0.0029157263 0.1463121 0.018604072
000360 02 e3 4b 3d 88 97 00 3e d0 d0 40 3d 5c f8 1d 3d
       0.04977704 0.12557805 0.04707414 0.038566932
000370 51 08 9c 3d 00 3c 55 bd 5e 1a d1 3c be 59 e2 bc
       0.07618774 -0.052059174 0.025525268 -0.027630683
000380 2f 3d 0c 3d 9c f6 ad 3c 94 9a 9a 3e ea 4e c0 3c
       0.034238037 0.021235757 0.3019606 0.02347513
000390 c1 2f e9 3c 38 be 72 3e 6d ca 67 3c 80 b8 cd bd
       0.028465154 0.23705375 0.014147383 -0.10044956
0003a0 ff a1 90 3d 8d 38 86 3e 5d 3c ac bc 1e 96 c5 bc
       0.07062148 0.2621502 -0.021024877 -0.024119433
0003b0 d8 f7 9c bc 38 0b 16 bc 3f a9 79 bd 36 fb da 3c
       -0.01916115 -0.009157948 -0.06095242 0.026731115
0003c0 5f 27 5a bc 55 ee 01 bd 2e 0d 19 3c 39 e0 23 bd
       -0.013315051 -0.03172143 0.009341521 -0.040008757
0003d0 78 b5 6f 3e 5d 74 85 bc 24 6c 5b 3c b5 14 08 3c
       0.23409069 -0.016290838 0.013392482 0.008305718
0003e0 43 12 63 3c 75 10 e2 3d 40 0c b4 3c 87 6c 63 3b
       0.013859334 0.11038295 0.021978498 0.0034702139
0003f0 8a be ea 3b 1e 3d 2d bc 90 1e 8c bc 0f 31 5f 3d
       0.0071638273 -0.0105736535 -0.017104417 0.054490145

net.6.bias f4 [5]
000000 bb 6a 5d 3e 5b d9 90 3e 45 4d fa 3d 95 ff 56 3e
       0.21622746 0.2829083 0.12221769 0.20995934
000010 0f ae f2 3d
       0.11849605
