data/derived/tune_runs/trainable_7d048_00102/mlp_head_last.pt (torch, 543901 bytes, 6 tensors)

net.0.weight f4 [256, 384]
0	0xbdc6991c	-0.09697172
1	0xbd926c03	-0.07149508
2	0x3d1b143e	0.0378611
3	0xbc31f69b	-0.010862018
4	0xbda35afb	-0.079763375
5	0xbd829de9	-0.06377775
6	0xbc4685fd	-0.012116906
7	0xbd28709b	-0.041123014
8	0x3ce0f374	0.027459837
9	0x37c60dc8	2.3609857e-05
10	0xbca8e841	-0.02061856
11	0x3cfa8a91	0.030583652
12	0x3d3f70e0	0.046738505
13	0xbc0a153e	-0.008427916
14	0xbd32a9f8	-0.043619126
15	0x3d7850ab	0.060623806
16	0xbd1e0ff9	-0.03858945
17	0x3d4c494a	0.04987458
18	0xbd690630	-0.056890666
19	0x3ccc7e65	0.024962613
20	0x3c388594	0.011262316
21	0x3cad616b	0.021164617
22	0x3cb7c414	0.022432365
23	0x3d0e240c	0.034702346
24	0xbd3388ad	-0.043831516
25	0x3c61e333	0.013787079
26	0xbcfd768d	-0.030940318
27	0xbc25877c	-0.010103103
28	0xbba7452a	-0.0051046805
29	0x3d4b3a23	0.04961599
30	0x3d719a26	0.058984898
31	0x3d056e3b	0.032575827
32	0x3bfd7b12	0.0077356184
33	0x3cc85d68	0.024458602
34	0xbd325490	-0.043537676
35	0x3d93974d	0.07206593
36	0xbde5f54d	-0.11228428
37	0x3da46fe6	0.080291554
38	0xbd4cb936	-0.04998132
39	0x3da0b0a2	0.0784619
40	0xbbb79dd4	-0.0056035314
41	0x3c5266ef	0.012841924
42	0x3b668926	0.0035176962
43	0x3d12d822	0.03585065
44	0x3c57428a	0.013138423
45	0x3dddebe4	0.10836008
46	0xbd18762d	-0.037222076
47	0xba91b291	-0.0011115839
48	0x3c50b0ff	0.012737512
49	0x3d9cbc40	0.07653093
50	0xbd8a4725	-0.06751851
51	0x3c90afbb	0.01766192
52	0x3d00a544	0.03140761
53	0x3b9b1488	0.004732672
54	0xbdca18b8	-0.09867996
55	0xbbeb026d	-0.00717192
56	0x3bd775fb	0.0065753437
57	0x3d208ee6	0.03919878
58	0xbd8d22f3	-0.06891432
59	0x3d3c3599	0.045949552
60	0xbd4805c7	-0.048833635
61	0xbd3fd99f	-0.0468384
62	0xbcdd16f2	-0.02698848
63	0x3d657fdb	0.056030136
64	0x3cb2512c	0.021767221
65	0xbc4a0826	-0.012331044
66	0xbd7a32d2	-0.061083622
67	0x3c247609	0.010037907
68	0x3bb57d87	0.0055386457
69	0x3d6f0ebb	0.058363657
70	0xbc14cff4	-0.009082783
71	0xbb7c98ef	-0.0038543304
72	0xbac42268	-0.0014963867
73	0xbd93a846	-0.0720983
74	0xbd6f1319	-0.058367822
75	0xbb72f6a7	-0.0037073286
76	0xbd108b26	-0.035288952
77	0xbb904f7e	-0.0044040075
78	0x3cd8feb3	0.026488638
79	0x3c61f077	0.013790241
80	0x3da4561a	0.08024235
81	0xbd4508dd	-0.048104156
82	0x3ccddf6f	0.025130956
83	0xbc5596ab	-0.01303641
84	0x3dd0e84c	0.10200557
85	0x3dab35f9	0.08359904
86	0xbdba5e45	-0.09100012
87	0x3d9fe5dd	0.07807515
88	0xbd61f08f	-0.055161055
89	0xbb93f0a1	-0.004514769
90	0x3cc09bfc	0.02351188
91	0xbc62986a	-0.013830284
92	0xbcb24314	-0.021760501
93	0x3cdbf11a	0.026848365
94	0xbccbbdb4	-0.024870731
95	0xbb8cfb3f	-0.004302412
96	0x3a63727c	0.00086764223
97	0xbcd67c43	-0.0261823
98	0x3c012593	0.007882494
99	0xbda0a767	-0.078444295
100	0x3cb5c241	0.022187354
101	0xbd963bac	-0.073356
102	0x3cf92d82	0.030417208
103	0x3d3fd4af	0.04683369
104	0x3c939841	0.018016936
105	0x3c4d6581	0.012536407
106	0x3b5370e0	0.0032263324
107	0xbde5e355	-0.11225001
108	0x3d0b2aa7	0.033976223
109	0xbc8e0893	-0.017338073
110	0x3d23c43e	0.039982073
111	0x3d2a400e	0.041564994
112	0xbbbea0d0	-0.00581751
113	0x3d067355	0.032824833
114	0xbd7ee1fb	-0.06222723
115	0x3c9f0eb9	0.0194162
116	0x3d3d8061	0.04626501
117	0x3bd08fda	0.0063648047
118	0xbd8c0619	-0.068371005
119	0xbc1251b5	-0.008930613
120	0xbcaa0920	-0.020756304
121	0x3cc13cfe	0.023588654
122	0xbdde44f5	-0.10852996
123	0x3d1b440a	0.037906684
124	0x3bce6d5c	0.0062996577
125	0x3cc78ec1	0.024360063
126	0xbb852f8a	-0.004064505
127	0xbd8351b9	-0.06412072
128	0xbdd054b7	-0.10172408
129	0xbd3e529a	-0.046465494
130	0x3bec321a	0.007208121
131	0xbd8b03f3	-0.06787863
132	0x3cf18053	0.029480135
133	0xbc5fbec6	-0.013656324
134	0xbdb9fdde	-0.090816244
135	0xbcda9bda	-0.026685644
136	0x3d1966a2	0.037451394
137	0x3d491982	0.04909659
138	0xbcd2df8a	-0.025741357
139	0x3bac8330	0.005264662
140	0xbd1cb8c3	-0.03826214
141	0x3c0ab0df	0.008465021
142	0x3c77ea73	0.015131581
143	0xbd3a32a6	-0.04545846
144	0xbcad81f8	-0.021180138
145	0xbbe819ab	-0.007083138
146	0xbd9ff292	-0.078099385
147	0xbd34c511	-0.04413325
148	0xbdd44e22	-0.10366465
149	0x3d9108fa	0.0708179
150	0xbd8368ea	-0.06416495
151	0xbcb8c537	-0.022554977
152	0x3bfe68e3	0.0077639683
153	0x3c9bc45e	0.019014534
154	0xbca15583	-0.019694095
155	0x3d2a80b4	0.041626647
156	0xbc68bb16	-0.014204761
157	0x3b6d062c	0.0036167009
158	0xbc86ab1d	-0.016439015
159	0x3c7cd598	0.015431784
160	0xbcdc555c	-0.026896171
161	0x3d6f5c8c	0.05843787
162	0xbd2b691c	-0.041848287
163	0x3c8af97b	0.016964665
164	0x3c5ed287	0.013599998
165	0xbd65e877	-0.0561299
166	0xbc0b6aea	-0.008509377
167	0xbda3129a	-0.07962532
168	0xbc599684	-0.013280515
169	0xbcff764c	-0.031184338
170	0xbd2ff434	-0.0429575
171	0x3cb81379	0.022470223
172	0x3c39d170	0.011341438
173	0xbc9fd659	-0.019511389
174	0xbd8e66e5	-0.06953219
175	0xbd2a4867	-0.041572955
176	0x3c9fa8a0	0.019489586
177	0x3c86a581	0.01643634
178	0x3d869d2e	0.065729484
179	0xbd71c61e	-0.05902683
180	0xbd8fc656	-0.070202515
181	0x3d38032a	0.044924892
182	0xbd8fef84	-0.07028106
183	0x3bb5dee2	0.0055502513
184	0x3ad2e4ca	0.0016089913
185	0xbd2ad318	-0.04170522
186	0x3b92d0e3	0.0044804676
187	0xbd0a3c45	-0.033748884
188	0x3d3e3197	0.04643401
189	0xbdc93c59	-0.098259635
190	0xbdb679b9	-0.089099355
191	0xbceafd36	-0.028685194
192	0x3cf8185c	0.030285053
193	0xbd4fd5bb	-0.05074094
194	0x3db70a61	0.089375265
195	0x3d0c5d12	0.034268446
196	0x3d76b308	0.06022933
197	0x3d79a2a2	0.060946114
198	0xbceb37cd	-0.028713131
199	0x3d94780e	0.07249461
200	0xbd72aa39	-0.05924437
201	0x3d73d877	0.05953261
202	0x3c4e922b	0.012608091
203	0x3da26101	0.07928658
204	0x3cb28cc1	0.021795632
205	0xbcc22e9d	-0.023703868
206	0x3c3bd5f3	0.011464584
207	0x3c95c9ea	0.018284757
208	0x3d0271c9	0.031846795
209	0xbd99b534	-0.07505265
210	0xbd0a9162	-0.033830054
211	0x3d4d1dd2	0.050077267
212	0xbcdcd4c5	-0.026956925
213	0xbd9799ed	-0.07402406
214	0x3cd8df94	0.026473798
215	0x3d7f0f11	0.062270228
216	0xbafa0dd1	-0.0019077604
217	0x3ddcc781	0.1078024
218	0xbd0fcd7e	-0.035108082
219	0xbd225000	-0.039627075
220	0x3b5f05f7	0.0034030655
221	0xbcaf098c	-0.021366857
222	0xbcb57787	-0.022151722
223	0xbca37191	-0.019951614
224	0xbd6d2a91	-0.057901923
225	0xbd3dac30	-0.04630679
226	0xbdc8e6a6	-0.09809618
227	0x3d0e7ae1	0.034785155
228	0x3b90af6e	0.004415444
229	0x3cd4e081	0.025985958
230	0x3c8aabfa	0.016927708
231	0xbd022885	-0.031776924
232	0xbd25d9c0	-0.040490866
233	0xbd0b6f6c	-0.034041807
234	0x3d10a3db	0.035312515
235	0x3c4fa138	0.012672715
236	0xbcc7978d	-0.024364257
237	0xbd29d888	-0.041466266
238	0xbd36e0f7	-0.044648137
239	0x3ba94684	0.005165877
240	0x3d84efac	0.06491026
241	0x3a8ffa1a	0.001098457
242	0x3c87a9e6	0.016560506
243	0x3d22e6f1	0.039771024
244	0xbce42fb2	-0.027854774
245	0x3ccd6db8	0.025076732
246	0xbd8bf373	-0.06833544
247	0xbc6e901a	-0.014560724
248	0xba94e989	-0.0011361103
249	0x3d40efef	0.04710382
250	0x3c9da0fa	0.019241799
251	0xbc937d67	-0.018004132
252	0xbd410b37	-0.047129836
253	0xbceb7374	-0.028741576
254	0x3ce8e87d	0.028431172
255	0x3d066eda	0.03282056

net.0.bias f4 [256]
0	0xbca1cb81	-0.019750359
1	0x3cd96ed5	0.026542107
2	0x3ca43690	0.020045549
3	0x3d6e5fe7	0.05819693
4	0x3d0f4692	0.03497941
5	0xbce690a2	-0.028145138
6	0x39d19b46	0.00039979274
7	0x3d149cfa	0.036282517
8	0xbd2075a0	-0.039174676
9	0xbcd20240	-0.025635839
10	0xbccb4fab	-0.024818262
11	0xbc9269e5	-0.01787276
12	0x3c9c397d	0.019070381
13	0x3cf73241	0.03017533
14	0x3d242836	0.04007741
15	0xbb618b52	-0.0034415317
16	0x3ce6f6d4	0.028193869
17	0x3c8592a1	0.01630527
18	0xbcd396cf	-0.025828747
19	0x3c8a3e00	0.016875267
20	0x39265030	0.00015860866
21	0x3d56da3d	0.052454222
22	0x3ce38a80	0.027776003
23	0xbd85356d	-0.06504331
24	0x3d481845	0.04885127
25	0x3d0203dc	0.03174196
26	0xbc2e3073	-0.010631668
27	0x3d311ee4	0.04324235
28	0x3d128ce5	0.0357789
29	0xbbe15aef	-0.006877295
30	0xbb48f2a0	-0.0030662194
31	0xbd13a0ff	-0.03604221
32	0xbcbeb264	-0.023278423
33	0x3d2bbabb	0.041926127
34	0x3d8ba120	0.068178415
35	0x3d0d3d58	0.03448233
36	0x3d29b931	0.041436378
37	0xbca54800	-0.020175934
38	0x3d226841	0.039650206
39	0x3caa8691	0.02081612
40	0xbbdd7547	-0.0067583653
41	0x3becede4	0.007230507
42	0x3b3e8596	0.0029071323
43	0x3ced545e	0.028970893
44	0x3c90c140	0.017670274
45	0x3d9a8eba	0.07546754
46	0x3c1263ef	0.008934959
47	0x3d652a72	0.055948682
48	0x3cf3f597	0.029780192
49	0xbce0b305	-0.027429113
50	0xbcd76aa2	-0.026295964
51	0x3cbd42cf	0.023103146
52	0x3d87c727	0.06629782
53	0xbc8f7a74	-0.017514445
54	0xbd20e62b	-0.039282005
55	0xbd8423bf	-0.064521305
56	0xbc922484	-0.017839678
57	0x3be9d94b	0.007136499
58	0x3d45ecd2	0.048321553
59	0xbbac5178	-0.0052587353
60	0x3ceacf91	0.028663429
61	0x3cb64cc9	0.02225341
62	0xbd607c03	-0.054805767
63	0x3d20c796	0.03925284
64	0x3bf3a4c8	0.007435415
65	0xbb331716	-0.0027326993
66	0x3d127758	0.035758346
67	0x3d10406b	0.035217684
68	0xbc366e51	-0.0111347
69	0x3c5d7eab	0.0135189695
70	0x3d0de930	0.034646213
71	0x3cc0ff18	0.023559138
72	0x3d4a1c5c	0.04934345
73	0x3ce6756b	0.028132161
74	0x3cbd2a8e	0.02309158
75	0x3d7e2654	0.06204827
76	0x3c36d6d8	0.011159621
77	0x3cd06062	0.025436584
78	0x3a9b74aa	0.001186033
79	0x3bead353	0.007166305
80	0x3d305ede	0.043059222
81	0x3c449d0e	0.012000335
82	0x3cdf821f	0.027283726
83	0xbcd49603	-0.025950437
84	0x3c589b68	0.0132206455
85	0xba4ae7c5	-0.0007740225
86	0xbcfad81a	-0.030620623
87	0x3cf2c4e1	0.029634895
88	0xbcabf0f9	-0.020988928
89	0x3c544cee	0.012957795
90	0x36a06658	4.780286e-06
91	0x3c126bff	0.008936881
92	0x3c89dae1	0.016828002
93	0xbcd7a188	-0.026322141
94	0x3cb3754c	0.021906517
95	0x3cc7c352	0.024385128
96	0xbd88d0e8	-0.06680471
97	0x3cfe8723	0.031070298
98	0x3d2da2e7	0.042391684
99	0xbd221add	-0.0395764
100	0xbd26bbc1	-0.0407064
101	0x3c83426f	0.016022889
102	0xbce49423	-0.027902668
103	0x3c23cb8b	0.009997259
104	0x3c05c5a4	0.008164797
105	0xbd1365d9	-0.0359858
106	0x3cd8f9f1	0.026486369
107	0x3d194207	0.037416484
108	0xb98d9592	-0.00027005054
109	0x3d19d239	0.037554
110	0xbc1bd797	-0.00951185
111	0x3cf6e00a	0.030136127
112	0xbbc959d0	-0.0061447397
113	0xbc807a0d	-0.015683198
114	0xbc3a7df2	-0.011382567
115	0xbccaba56	-0.024747055
116	0x3d58ad90	0.052899897
117	0xbc0ea1a2	-0.008705528
118	0xbb5e687a	-0.0033936785
119	0x3cc98be2	0.024602834
120	0xbcdc48d5	-0.026890198
121	0x3d0a5892	0.033775873
122	0x3cf2475c	0.029575042
123	0xbd3438fd	-0.04399966
124	0xbbc4020e	-0.0059816903
125	0xbc392e3b	-0.011302526
126	0xbc5afb71	-0.013365612
127	0xbc3d18e6	-0.011541581
128	0xbca49e87	-0.020095123
129	0x3cb375f6	0.021906834
130	0x3cc05f80	0.023483038
131	0x3d848843	0.06471302
132	0x3cf68ebf	0.030097364
133	0xbc939514	-0.018015422
134	0xbcd7025f	-0.026246248
135	0x3ce3b0ed	0.027794326
136	0x3b9a9c23	0.00471832
137	0x3cfcb025	0.030845711
138	0x3d1dfa2c	0.03856866
139	0x3cbb3552	0.022852574
140	0x3be795fb	0.0070674396
141	0x3c4e9237	0.0126081025
142	0x3b8613bf	0.0040917094
143	0x3d8adebc	0.067807645
144	0x3d0dfa69	0.034662638
145	0xbcf34a56	-0.029698532
146	0x3bd989aa	0.0066387253
147	0x3bf3f422	0.0074448744
148	0xbd732761	-0.059363727
149	0xbc9e2005	-0.019302377
150	0x3d2a656b	0.041600626
151	0xbd27b4cb	-0.040943902
152	0x3d1f108f	0.03883415
153	0xbccd2d28	-0.025045946
154	0xbd086ddf	-0.033307906
155	0x39c1d1a2	0.00036968017
156	0x3cef6139	0.029221164
157	0x3c125d72	0.008933412
158	0x3d1879ae	0.037225418
159	0x3d666de9	0.056257162
160	0xbbb4240d	-0.0054974617
161	0x3ca7a983	0.020466572
162	0x3d43cf62	0.047805198
163	0xbd05846c	-0.03259699
164	0xbbb8aab5	-0.0056355842
165	0xbc90d9db	-0.017682007
166	0xbd729056	-0.05921968
167	0xbca691a4	-0.020333119
168	0x3b44852a	0.0029986599
169	0xbd4de32b	-0.050265472
170	0x3c03db7c	0.008047935
171	0x3cf17f01	0.029479505
172	0x3d14037a	0.036136128
173	0x3bfe2638	0.007756021
174	0x3c130de7	0.008975483
175	0x3c7106c1	0.014711083
176	0x3bcdf425	0.006285208
177	0x3d6e4223	0.05816854
178	0x3c3a509d	0.011371759
179	0x3d2ddf8a	0.04244951
180	0xbc7bb160	-0.015362114
181	0xbd049db2	-0.032376952
182	0x3d89a1b5	0.06720296
183	0x3caad347	0.020852698
184	0x3cf6e4c6	0.030138385
185	0xbca08f61	-0.019599618
186	0x3cb78126	0.02240045
187	0xbc4d1bcc	-0.012518834
188	0xbc895703	-0.016765123
189	0x3c5d1eb6	0.013496092
190	0x3cf4613d	0.029831523
191	0x3d147094	0.036240175
192	0xbb667dd3	-0.0035170212
193	0xbd4e1847	-0.05031612
194	0x3b3bff66	0.0028686165
195	0xbd654da7	-0.05598226
196	0xbd4ae376	-0.04953333
197	0xbc9556b7	-0.018229825
198	0x3d1b9b27	0.03798976
199	0x3d325da3	0.04354633
200	0x3c0fff6f	0.008788927
201	0x3d26e5e0	0.04074657
202	0xbd024029	-0.03179947
203	0xbcef72a2	-0.029229466
204	0x3cede830	0.02904138
205	0x3caefdd3	0.021361267
206	0xbcd448d0	-0.025913626
207	0xbd11a464	-0.035557166
208	0xbce547d6	-0.027988356
209	0x3cbd44a7	0.023104025
210	0x3c86e589	0.016466873
211	0xbc545b70	-0.0129612535
212	0xb98a67d7	-0.00026398778
213	0x3d03c3e5	0.03216924
214	0xbd025774	-0.031821683
215	0xbca36ed8	-0.019950315
216	0x3d0921d4	0.033479527
217	0x3d2a153a	0.04152415
218	0x3d1dd0b0	0.038529098
219	0x3d76aa69	0.06022111
220	0x3d19cb7c	0.037547573
221	0x3d122e5b	0.03568874
222	0x3d139321	0.036028985
223	0xbcfa5b7f	-0.030561207
224	0xbc1425a6	-0.009042179
225	0x3cdf73ad	0.027276838
226	0xbd1d4405	-0.038394947
227	0xbd63eb37	-0.05564424
228	0xbd2d45ab	-0.04230277
229	0xbc770f86	-0.015079385
230	0x3d00c5f4	0.031438783
231	0x3d3c9158	0.046037048
232	0xbcf46009	-0.02983095
233	0x3c90f119	0.01769309
234	0x3cb237fb	0.02175521
235	0xbd035f42	-0.032073267
236	0x3d36204b	0.04446439
237	0xbc29aedb	-0.01035663
238	0x3c66f907	0.014097459
239	0xbd6a5bdb	-0.057216506
240	0x3d071f07	0.032988574
241	0x3c019365	0.007908677
242	0x3cda38ef	0.026638476
243	0xbd1257d6	-0.035728298
244	0xbcf04767	-0.029330922
245	0xbb6038ea	-0.003421361
246	0xbce4e131	-0.02793941
247	0xbcb127db	-0.02162545
248	0x3d69f3b8	0.057117194
249	0xbab5f9e5	-0.0013883678
250	0x3d028948	0.031869203
251	0x3d6a2ee6	0.057173632
252	0xbd13d156	-0.03608831
253	0x3d7a7d40	0.061154604
254	0xbcdfb593	-0.027308261
255	0xbd8608db	-0.06544658

net.3.weight f4 [128, 256]
0	0x3d15ea33	0.036600303
1	0xbd2655b4	-0.040609077
2	0x3e032abb	0.12809269
3	0xbc78f276	-0.015194526
4	0x3d801392	0.06253733
5	0x3c35e927	0.011102951
6	0xbd9eaae9	-0.07747442
7	0xbc9b3981	-0.018948318
8	0xbda8a294	-0.08234134
9	0x3e1f3102	0.15546039
10	0x3d29ea66	0.041483305
11	0x3da2b7a2	0.079451814
12	0xbd8126cc	-0.06306228
13	0x3cbe4446	0.023225915
14	0xbd3ef55a	-0.046620704
15	0x3c0e0e4e	0.008670403
16	0xbd35e795	-0.044410307
17	0x3d560802	0.05225373
18	0xbb6102e2	-0.0034333994
19	0x3d49acdb	0.049237113
20	0x3dba189d	0.09086726
21	0x3d593ce6	0.053036593
22	0x3c639cb4	0.013892341
23	0xbd3fa192	-0.046784945
24	0x3d5c62a3	0.053805005
25	0xbc6f4917	-0.014604828
26	0x3d2060d7	0.039154854
27	0x3dcc3457	0.099709205
28	0x3d73d048	0.059524804
29	0xbd5b9792	-0.053611346
30	0x3d8efe77	0.06982129
31	0x3bbecc73	0.005822712
32	0xbd966caf	-0.073449485
33	0xbd38514d	-0.04499941
34	0xbc844262	-0.016144935
35	0x3c6e0d12	0.014529483
36	0x3dd36b8a	0.10323246
37	0x3c788956	0.015169462
38	0xbbb21775	-0.005434925
39	0xbd4eb46f	-0.050465044
40	0xbcaa3996	-0.020779412
41	0x3d62f06f	0.055405077
42	0x3b211f8b	0.0024585451
43	0x3daf0b98	0.08547133
44	0x3cf1d0d1	0.029518517
45	0x3d1f2544	0.0388539
46	0xbd641762	-0.055686362
47	0x3b9201f0	0.0044557974
48	0x3e06906b	0.13141029
49	0x3d5e6245	0.054292936
50	0x3d0cd909	0.03438667
51	0xbc9fc38e	-0.019502427
52	0x3d624a10	0.055246413
53	0xbd4b1b6b	-0.049586695
54	0xbd495c2d	-0.04916017
55	0x3ce31418	0.027719542
56	0x3bd32814	0.0064439867
57	0x3df00c25	0.117210664
58	0x3cfc8ba8	0.030828312
59	0x3bbb4e4a	0.00571612
60	0x3d3a190c	0.045434043
61	0xbccb7bbb	-0.024839273
62	0x3d08a691	0.033361975
63	0xbd3c6330	-0.04599303
64	0x3d206272	0.039156385
65	0xbca52148	-0.020157471
66	0x3e3cf84e	0.18454096
67	0x3d721ec6	0.05911138
68	0x3d7a6e0f	0.061140116
69	0x3d603df9	0.0547466
70	0x3cecb406	0.028894436
71	0xbd1b78b5	-0.037956912
72	0x3d49ad15	0.04923733
73	0xbc875a87	-0.016522659
74	0x3c66b272	0.014080631
75	0x3d243dd7	0.040098038
76	0xbbf80234	-0.007568622
77	0x3d621b03	0.05520154
78	0x3dc8ae5f	0.09798884
79	0xba8bcca7	-0.001066585
80	0xbbe2e877	-0.0069246846
81	0xbd22bef4	-0.03973289
82	0xbb3b8d9c	-0.0028618341
83	0x3da0a595	0.07844082
84	0x3d3921ba	0.04519818
85	0x3db338f4	0.08751097
86	0x3d3a07a7	0.045417454
87	0x3d6bf268	0.057604223
88	0xbd331a94	-0.04372652
89	0x3bac8681	0.0052650576
90	0x3daddf49	0.08489854
91	0x3dbb1ff6	0.091369554
92	0x3cb8f999	0.022579955
93	0x3d6c59b8	0.05770275
94	0x3c7bc0d6	0.0153658
95	0x3d3a06c2	0.0454166
96	0x3dcb0df2	0.09914769
97	0x3d709c32	0.05874271
98	0x3d1827f0	0.037147462
99	0x3db32925	0.08748082
100	0xbdb3dcf7	-0.0878238
101	0x3cab22bc	0.020890586
102	0x3d39c6a3	0.04535545
103	0xbbe44d13	-0.006967196
104	0x3d82b375	0.06381885
105	0x3918b3b6	0.00014562797
106	0xbde9feb4	-0.11425534
107	0x3dee2ab6	0.1162924
108	0x3d9cf78e	0.07664405
109	0x3d679d93	0.05654676
110	0x3dac4ee8	0.08413488
111	0x3e0f1fb8	0.13976943
112	0xbb93862a	-0.0045020776
113	0x3d834293	0.064091824
114	0x3d78a1df	0.060701247
115	0xbd239c59	-0.039944027
116	0x3d91dd68	0.07122308
117	0xbc12260f	-0.008920207
118	0xbd94fdd7	-0.072749786
119	0x3cfefd89	0.031126754
120	0xbd7de1bf	-0.061982866
121	0x3dec0fc1	0.11526442
122	0x3dacf17a	0.084444955
123	0xbcb12ee2	-0.0216288
124	0xbd27c93c	-0.040963396
125	0xbd29c6f8	-0.041449517
126	0x3d8547dc	0.06507847
127	0x3d9812c7	0.074254565
128	0x3d3258bd	0.04354166
129	0xbd3e074e	-0.046393685
130	0xbd99711e	-0.074922785
131	0x3d206494	0.03915842
132	0xbd166a0c	-0.036722228
133	0xbc8c6191	-0.017136367
134	0x3e3039a4	0.17209488
135	0xbcc495a5	-0.023997137
136	0x3df40358	0.119147
137	0x3d8df551	0.06931556
138	0x3dd4c308	0.10388762
139	0x3d41370c	0.047171637
140	0xbbcb7100	-0.006208539
141	0xbdc3f080	-0.09567356
142	0x3cee8faa	0.029121239
143	0x3c1210fb	0.008915181
144	0x3cdf74f2	0.027277444
145	0x3d8d001e	0.06884788
146	0x3c88f929	0.016720371
147	0x3dd1386c	0.1021584
148	0x3d2364d5	0.039891083
149	0x3ce90979	0.0284469
150	0x3de537a3	0.111922525
151	0x3b253b78	0.0025212448
152	0x3da90ac8	0.082540095
153	0xbc11500d	-0.008869183
154	0xbba1f1a8	-0.0049421377
155	0x3c549be2	0.0129766185
156	0xbc911d79	-0.017714249
157	0x3cc490c3	0.023994809
158	0xbd5d0711	-0.053961817
159	0xbc5065c9	-0.01271958
160	0x3e38e300	0.18055344
161	0xbd8fac18	-0.07015246
162	0xb9bcaa18	-0.00035984884
163	0x3b121d7d	0.0022295408
164	0x3cfd1c24	0.030897208
165	0x3c910009	0.017700212
166	0xba0eb35d	-0.00054435973
167	0x3c138611	0.009004132
168	0x3e3e5de7	0.18590508
169	0x3d011083	0.031509887
170	0x3dafe3cc	0.08588371
171	0x3da0d14f	0.078524224
172	0x3ce57d9f	0.028014002
173	0x3e141350	0.14460492
174	0xbcae859d	-0.021303946
175	0x3d97b47b	0.07407471
176	0x3bfad525	0.0076548033
177	0x3d9c151a	0.07621212
178	0x3ba077e0	0.0048971027
179	0x3d0cb7f3	0.034355115
180	0xbcd0eac2	-0.025502566
181	0x3d318a62	0.043344863
182	0x3d49a024	0.049224988
183	0xbdd40432	-0.10352363
184	0x3de00fdc	0.10940525
185	0x3d18f9d6	0.037347637
186	0x3dab3cac	0.083611816
187	0x3da40511	0.08008779
188	0xbc5f3909	-0.013624438
189	0x3c846777	0.016162617
190	0x3d1101cb	0.0354021
191	0xbc555c22	-0.013022454
192	0xbd77181b	-0.060325723
193	0x3dcb2a52	0.09920181
194	0xbd551cfd	-0.0520296
195	0x3a51f6e4	0.0008009507
196	0x3ca90aea	0.020635087
197	0x3bef2b6d	0.007298878
198	0x3dd024cb	0.10163268
199	0x3cc2eec0	0.023795485
200	0x3db786c2	0.0896125
201	0x3dfaf0d0	0.122529626
202	0x3d214fde	0.039382808
203	0xbc55eebf	-0.01305741
204	0x3d670a04	0.056406036
205	0x3de22583	0.11042311
206	0x3d177c89	0.036984
207	0x3d8dc65b	0.06922599
208	0x3e00c9d5	0.12576993
209	0x3d491e40	0.049101114
210	0x3d92fa6e	0.07176672
211	0xbd4f3a11	-0.050592486
212	0x3ccb6df2	0.0248327
213	0x3da6dd8d	0.08147726
214	0xbd034730	-0.03205031
215	0x3d5929eb	0.05301849
216	0x3de63d30	0.11242139
217	0x3ce93be4	0.02847094
218	0x3dc94a4f	0.09828626
219	0xbd709885	-0.058739204
220	0x3de74fd3	0.11294522
221	0xbbf4c72b	-0.0074700317
222	0xbcd849dd	-0.026402408
223	0x3d663c7c	0.056210026
224	0xbccde842	-0.025135163
225	0x3d4278ce	0.04747849
226	0x3e081bc4	0.13291842
227	0xbbcb047a	-0.006195602
228	0x3cf58c64	0.02997417
229	0x3d691dbe	0.05691313
230	0x3bd5ae5f	0.006521031
231	0x3d43092b	0.047616165
232	0xbdbbc523	-0.0916846
233	0x3cdc05a9	0.026858168
234	0xbd066b9d	-0.03281747
235	0x3ddc36fe	0.107526764
236	0x3d61f9c4	0.055169836
237	0x3aa6d94f	0.0012729558
238	0x3cdb7e91	0.02679375
239	0x3cd75aa2	0.026288334
240	0x3d874d4e	0.066065416
241	0xbd3a9a61	-0.045557383
242	0xbd3e2104	-0.046418205
243	0x3cefe2d4	0.029282965
244	0xbce5bb51	-0.028043421
245	0x3d0f90e6	0.035050295
246	0x3d1cfadb	0.038325172
247	0x3e09a89a	0.13443223
248	0x3dadc30b	0.08484467
249	0x3ce26e46	0.027640473
250	0x3da4ec1d	0.080528475
251	0x3c550caa	0.013003508
252	0x3b9ff755	0.004881779
253	0x3bc741e4	0.006080853
254	0xbca61e65	-0.020278165
255	0xbe1c65b5	-0.15273173

net.3.bias f4 [128]
0	0x3d8c9134	0.06863633
1	0xbce37fd9	-0.027770923
2	0x3d0fdeff	0.035124775
3	0x3ca9eb6b	0.020742139
4	0x3c83b2ff	0.016076563
5	0xbd08a31b	-0.033358674
6	0x3d507101	0.05088902
7	0x3d037b41	0.032099966
8	0x3d85397e	0.065051064
9	0x3d22bd2c	0.03973119
10	0xbc7b75eb	-0.015347938
11	0xbd5f6ad3	-0.054545235
12	0x3cf4c1ab	0.029877504
13	0x3b99795d	0.004683657
14	0xbcb24bb2	-0.02176461
15	0x3daa9b36	0.083303854
16	0x3d0bc07e	0.03411912
17	0x3d6c03b0	0.057620704
18	0xbd5357f4	-0.05159755
19	0x3db1f74d	0.08689747
20	0x3cb254c1	0.02176893
21	0xbce55850	-0.027996212
22	0x3d28e5e6	0.041234873
23	0x3d417b7f	0.047236916
24	0xbd1eefa0	-0.038802743
25	0xbb504936	-0.0031781918
26	0xbd5b2be8	-0.05350867
27	0x3d3c136e	0.045916967
28	0x3d652242	0.055940874
29	0xbc5a7a00	-0.013334751
30	0x3d78855a	0.06067405
31	0x3ccd492b	0.025059303
32	0xbcff1472	-0.031137679
33	0x3d224c80	0.039623737
34	0x3d04c9ba	0.032418944
35	0x3d298256	0.041384064
36	0xbd4b074f	-0.049567517
37	0x3d5c0035	0.053711135
38	0x3d84756b	0.06467708
39	0x3d566b4c	0.05234842
40	0x3c68b33a	0.014202887
41	0xbd43ce84	-0.04780437
42	0xbcc61992	-0.024182115
43	0x3d5463d9	0.051853035
44	0x3c12f381	0.008969189
45	0xbc4bbecf	-0.012435629
46	0x3c4babbd	0.012431082
47	0xbb13c0c0	-0.0022545308
48	0x3c2a0d1a	0.0103791
49	0x3c0be6b8	0.008538894
50	0xbd1c88e2	-0.03821648
51	0xbd877a7d	-0.0661516
52	0x3daac045	0.08337454
53	0x3c6080e3	0.013702604
54	0x3d4aa749	0.04947594
55	0xbd07233f	-0.032992598
56	0x3d90e608	0.07075125
57	0xbd40acf9	-0.04703996
58	0xbd072cc9	-0.033001695
59	0x3d6dc9bc	0.058053717
60	0xbc64ea3e	-0.013971863
61	0x3d228754	0.03967984
62	0x3d07bc2d	0.033138443
63	0x3cfd0658	0.030886814
64	0xbd2c17c0	-0.042014837
65	0xbd860b59	-0.06545133
66	0x3d08c1c5	0.033387918
67	0xbcfb804f	-0.03070083
68	0x3b266ebc	0.0025395593
69	0x3d8b39bd	0.06798122
70	0x3ce85117	0.02835898
71	0x3d615284	0.055010334
72	0xbd47d0e8	-0.048783213
73	0xbca753aa	-0.020425636
74	0xbcc27177	-0.023735745
75	0x3d0f1889	0.034935508
76	0x3da1c1f7	0.07898324
77	0x3d1b746c	0.037952825
78	0x3c06c7e0	0.008226365
79	0x3d9e284c	0.0772253
80	0x3bd894ad	0.0066095204
81	0xbc40c8b9	-0.011766606
82	0xbc83c997	-0.016087336
83	0xbb79a9a5	-0.00380955
84	0x3c89ee5e	0.016837295
85	0xbc7a97a2	-0.015294941
86	0xbcff73d1	-0.031183155
87	0xbc837324	-0.016046114
88	0xbd7c3f00	-0.06158352
89	0xbb8b1495	-0.004244397
90	0x3baba726	0.0052384315
91	0x3d7ede3e	0.062223665
92	0x3d20c220	0.039247632
93	0x3c2fac2f	0.010722204
94	0x3ce9c368	0.02853556
95	0xbd668854	-0.056282356
96	0x3d030dc4	0.03199555
97	0x3d4e6309	0.050387416
98	0xbc35590d	-0.011068595
99	0xbac37259	-0.0014911398
100	0x3d0a7141	0.033799414
101	0x3d0576af	0.03258389
102	0xbc882f17	-0.016624017
103	0xbd668eb8	-0.05628845
104	0x3d13bc69	0.036068354
105	0xbb88fb7f	-0.0041803713
106	0xbc08e2da	-0.008354867
107	0x3d8be234	0.06830254
108	0xbb621cf0	-0.0034502111
109	0x3d2da069	0.042389307
110	0xba099bff	-0.00052493805
111	0xbced0311	-0.028932126
112	0xbd478ab4	-0.048716262
113	0x3d04d805	0.032432575
114	0x3d21e61b	0.039526086
115	0xbc9eb6cf	-0.01937428
116	0xbd5342be	-0.051577322
117	0x3d1248ed	0.03571408
118	0xbcb28faf	-0.02179703
119	0x3dd5005f	0.104004614
120	0xbd92c03e	-0.071655735
121	0x3d36c85d	0.044624675
122	0x3d00fd66	0.03149166
123	0xbcdab734	-0.026698686
124	0xbcfd097e	-0.030888315
125	0xbcc5193e	-0.024059888
126	0x3daea8a3	0.08528259
127	0x3c6e0b84	0.014529113

net.6.weight f4 [5, 128]
0	0x3debc196	0.11511533
1	0xbd29f52b	-0.041493576
2	0xbd1ee640	-0.038793802
3	0x3e3539a2	0.17697766
4	0x3cc57937	0.024105651
5	0xbd8568db	-0.0651414
6	0xbd1ac766	-0.037787817
7	0xbd014db9	-0.031568263
8	0xbc628bfd	-0.013827321
9	0xbe3e7472	-0.18599108
10	0x3aeac39b	0.0017911078
11	0x3e2a28d9	0.16617145
12	0xbd1624d4	-0.036656216
13	0xbc40c57e	-0.011765836
14	0x3d7c6d86	0.061627887
15	0xbd82b807	-0.06382757
16	0x3dfc7d76	0.12328617
17	0xbd00d318	-0.031451315
18	0x3e4af905	0.19821556
19	0xbd81c779	-0.063368745
20	0xbe007da8	-0.12547934
21	0x3dc19d42	0.09453823
22	0x3a453ad8	0.0007523722
23	0x3cb51c6f	0.022108285
24	0x3e04c2e5	0.12964971
25	0x3dab56d7	0.08366173
26	0xbd909879	-0.07060332
27	0xbdfe7675	-0.12424938
28	0x3d9fa7d9	0.07795686
29	0xbdd677f4	-0.10472098
30	0x3e3b5366	0.18293533
31	0x3d0e4888	0.03473714
32	0xbe4a1a6b	-0.1973664
33	0x3dad9450	0.08475554
34	0xbc85c07e	-0.016327139
35	0xbcd935b3	-0.026514864
36	0xbd19f1bd	-0.037584055
37	0x3e06279c	0.13101047
38	0x3d8842f5	0.06653396
39	0xbd992dfe	-0.074794754
40	0xbdedce1d	-0.116115786
41	0xbc9ab398	-0.018884465
42	0xbcbb2e10	-0.022849113
43	0x3cb7b681	0.022425892
44	0x3db04255	0.08606402
45	0xbc7a01e4	-0.01525924
46	0xbc75a496	-0.014992854
47	0x3d990cbb	0.07473131
48	0x3dd220a1	0.1026013
49	0xbcfcc44c	-0.03085532
50	0xbc46d34a	-0.012135336
51	0xbd147f29	-0.036254082
52	0x3d7d3d1e	0.061825864
53	0x3e0c399d	0.13693853
54	0xbd9756f6	-0.07389633
55	0x3c6bc812	0.014390962
56	0xbc06137b	-0.008183355
57	0x3d8b9f88	0.068175375
58	0x3b946b58	0.004529398
59	0x3d863277	0.06552594
60	0x3d0a0557	0.0336965
61	0xbc9b3111	-0.018944295
62	0x3c628e1e	0.013827829
63	0xbd1a68fd	-0.03769778
64	0x3cf25d78	0.029585585
65	0xbe7bdea4	-0.2459665
66	0x3d4f0d85	0.050550003
67	0xbdb2d2cf	-0.08731615
68	0x3d28d1ff	0.041215893
69	0xbc54e7b4	-0.012994695
70	0x3cb68760	0.022281349
71	0x3dc4fdfa	0.09618755
72	0xbceee223	-0.029160565
73	0x3805bc44	3.1885007e-05
74	0xbc570ffe	-0.013126371
75	0xbd60e92a	-0.054909863
76	0x3d4376ac	0.047720596
77	0x3e3deb03	0.18546681
78	0x3ca0ff00	0.019652843
79	0x3d8f2d07	0.0699101
80	0xbcc3e503	-0.023912912
81	0x3cc2129a	0.02369051
82	0xbd0fff58	-0.035155624
83	0x3dbbb20d	0.0916482
84	0x3dd44d67	0.10366326
85	0xbe3eedd8	-0.18645418
86	0x3d8f9075	0.07009975
87	0x3db9c31d	0.09070418
88	0x3c9eeb02	0.01939917
89	0x3d2cd1c7	0.042192247
90	0x3d5253fb	0.05134962
91	0x3cf1d18e	0.029518869
92	0xbcf998f0	-0.030468434
93	0xbd5229f4	-0.05130954
94	0xbc9a5699	-0.018840121
95	0xbd896781	-0.06709195
96	0x3d9c46be	0.076306805
97	0xbe58994e	-0.21152231
98	0xbd9ba7e3	-0.07600381
99	0x3b7b6532	0.0038359878
100	0x3da2533c	0.07926032
101	0x3d9c3974	0.07628146
102	0x3d2f8a1d	0.042856324
103	0x3d6ccafa	0.05781076
104	0x3e3c5ef6	0.183956
105	0x3e877ffa	0.26464826
106	0xbcc5b8e5	-0.024136016
107	0xbd810ddb	-0.06301471
108	0xbd73df46	-0.059539102
109	0x3ccd114c	0.025032662
110	0xbd6358a3	-0.055504452
111	0x3d92c5da	0.071666434
112	0x3d121a79	0.035669778
113	0xbb4a7870	-0.003089454
114	0xbca5f950	-0.020260483
115	0xbdae5801	-0.08512879
116	0x3e7c7019	0.24652137
117	0xbd305459	-0.04304919
118	0x3d37bdc1	0.044858698
119	0xbd699b79	-0.057033036
120	0xbe4fc160	-0.2028861
121	0xbce41504	-0.027842052
122	0xbb0f9037	-0.0021906027
123	0x3d217866	0.03942146
124	0x3d739998	0.05947265
125	0x3cd7d187	0.026345028
126	0x3cff4697	0.03116159
127	0xbd98b978	-0.0745725
128	0x3e08ecd3	0.13371591
129	0xbd75e8b1	-0.060036365
130	0x3d86ff08	0.06591612
131	0xbe488955	-0.19583638
132	0xbcb656cb	-0.022258183
133	0xbd65d755	-0.05611356
134	0xbd1c4541	-0.038151983
135	0xbd3f34ea	-0.046681322
136	0x3da22792	0.07917704
137	0x3d5bbd2d	0.05364721
138	0xbd6e9705	-0.058249492
139	0xbd8c869d	-0.06861613
140	0x3d36520a	0.044511832
141	0xbb86a568	-0.0041090734
142	0xbccf129b	-0.025277426
143	0x3d17402c	0.036926433
144	0xbd2cad63	-0.042157542
145	0xbd4958e3	-0.049157035
146	0xbc828aa2	-0.015935246
147	0x3e1503b1	0.1455219
148	0xbe019993	-0.1265624
149	0xbdd4ab64	-0.10384253
150	0x3c842cb8	0.016134605
151	0xbd8145c7	-0.06312137
152	0x3dc59132	0.096468344
153	0xbd4cdafc	-0.050013527
154	0x3aaf50d4	0.0013375529
155	0x3d61800d	0.05505376
156	0x3c89fafc	0.016843311
157	0x3d33623e	0.043794863
158	0xbd460a26	-0.048349522
159	0xb9b7aabb	-0.00035031684
160	0x3e72bef3	0.23705654
161	0xbe55ddb2	-0.20885351
162	0xbcc982cd	-0.024598503
163	0x3dcfc567	0.101450734
164	0xbca1dcd0	-0.019758612
165	0xbe050900	-0.12991714
166	0x3d94ca87	0.072651915
167	0xbbaa779f	-0.005202248
168	0x3e6921d0	0.22766805
169	0xbd78a206	-0.060701393
170	0x3d777fcd	0.060424615
171	0xbdca72a9	-0.09885151
172	0x3cf440ca	0.02981605
173	0x3d5a83f3	0.053348493
174	0xbdabc063	-0.08386304
175	0x3dc7854c	0.09742221
176	0xbc24af3b	-0.010051544
177	0x3e610a1d	0.21976514
178	0x3dccce7f	0.100003235
179	0xbd5dd8a4	-0.054161683
180	0x3da98dd8	0.08279008
181	0x3db2f7dc	0.08738682
182	0x3dbe6158	0.092959106
183	0x3b60b318	0.0034286436
184	0x3c479d15	0.012183447
185	0x3d7a2d88	0.06107858
186	0xbd59d7e4	-0.053184405
187	0xbd690917	-0.056893434
188	0x3e86e22d	0.26344433
189	0x3bb2bdd1	0.005454757
190	0x3db2db32	0.087332144
191	0x3d28129a	0.041033365
192	0xbcd19aa9	-0.025586443
193	0x3ded1870	0.11576927
194	0xbced273c	-0.028949372
195	0xbdbcc901	-0.09218026
196	0xbdf1e534	-0.11811295
197	0x3c949e5f	0.018141923
198	0x3d822811	0.06355298
199	0x3dc18560	0.094492674
200	0xbd0404a2	-0.03223098
201	0x3c691c42	0.014227929
202	0x3d27ef18	0.040999502
203	0xbc761c5b	-0.015021409
204	0xbd780776	-0.06055399
205	0x3d8e419a	0.06946106
206	0x3dd24a25	0.10268048
207	0x3d5f073b	0.054450255
208	0x3d9e5569	0.077311344
209	0x3d7f838b	0.06238131
210	0x3c92e903	0.017933374
211	0x3d93cf81	0.072173126
212	0x3d0607e8	0.032722384
213	0x3e3182e6	0.1733509
214	0x3dbc2a66	0.09187774
215	0xbd59fd20	-0.053219914
216	0x3a1b5bb0	0.0005926443
217	0xbd30068a	-0.042974986
218	0x3e5e0fe1	0.21685745
219	0xbcef2806	-0.02919389
220	0x3e437c6e	0.19090435
221	0xbd1701ca	-0.03686694
222	0xbcba2192	-0.022721086
223	0x3c685a31	0.01418166
224	0x3d34b41e	0.044117086
225	0x3bb3b4d7	0.0054842043
226	0xbd576513	-0.052586626
227	0xbd9ac0d2	-0.07556309
228	0x3dbcbf83	0.092162155
229	0x3d1f182a	0.038841404
230	0x3d960471	0.07325066
231	0xbd847b7a	-0.06468864
232	0xbdc04203	-0.09387591
233	0xbdc8d8ef	-0.09807002
234	0xbd2450e5	-0.04011621
235	0x3d915cd4	0.07097784
236	0x3d178b35	0.036997993
237	0xbc213f10	-0.009841695
238	0x3d264b2a	0.040599026
239	0x3de984cd	0.11402283
240	0x3cc66fe6	0.02422328
241	0xbd426864	-0.047462836
242	0xbb805e9b	-0.003917528
243	0x3d6e6064	0.058197394
244	0xbe2f5ab3	-0.17124443
245	0xbd4ae5ac	-0.04953544
246	0x3d41504c	0.047195718
247	0x3e61d91e	0.2205548
248	0x3e5efebd	0.21776862
249	0x3d4fdfb3	0.050750446
250	0x3b0bb793	0.0021319136
251	0xbb9e14fe	-0.00482428
252	0x3e22d12d	0.15900107
253	0xbd539184	-0.051652446
254	0x3d9f7a6c	0.07787022
255	0xbda310cc	-0.07962188

net.6.bias f4 [5]
0	0x3d9a77de	0.07542394
1	0xbc3a3c18	-0.0113668665
2	0x3caf8389	0.021425026
3	0xbd3df49a	-0.04637585
4	0x3d7b4637	0.06134626
